
# Parameters
nc: 80 # number of classes
scales: # model compound scaling constants, i.e. 'model=yolo11n.yaml' will call yolo11.yaml with scale 'n'
  # [depth, width, max_channels]
  n: [0.50, 0.25, 1024] # summary: 319 layers, 2624080 parameters, 2624064 gradients, 6.6 GFLOPs
  s: [0.50, 0.50, 1024] # summary: 319 layers, 9458752 parameters, 9458736 gradients, 21.7 GFLOPs
  m: [0.50, 1.00, 512] # summary: 409 layers, 20114688 parameters, 20114672 gradients, 68.5 GFLOPs
  l: [1.00, 1.00, 512] # summary: 631 layers, 25372160 parameters, 25372144 gradients, 87.6 GFLOPs
  x: [1.00, 1.50, 512] # summary: 631 layers, 56966176 parameters, 56966160 gradients, 196.0 GFLOPs

ch: 6
# YOLOv8.0n backbone
backbone:
  # [from, repeats, module, args]
  - [-1, 1, Silence, []]  # 0-P1/2
    # infrared
  - [0, 1, SilenceChannel, [3,6]]  # 1-P1/2
  - [-1, 1, Conv, [64, 3, 2]] # 2-P1/2
  - [-1, 1, Conv, [128, 3, 2]] # 3-P2/4
  - [-1, 2, C3k2, [256, False, 0.25]]
  - [-1, 1, Conv, [256, 3, 2]] # 5-P3/8
  - [-1, 2, C3k2, [512, False, 0.25]]


  # visible
  - [ 0, 1, SilenceChannel, [ 0,3 ] ]  # 7-P1/2  visible

  - [-1, 1, ZeroConv2d, [ 3,3, 1, 1]] # 8 (P5/32-large)
  - [[-1, 7, 1], 1, CMFM, [256]]  # ADD backbone P3   9

  - [ -1, 1, Conv, [ 64, 3, 2 ] ] # 10-P1/2
  - [ -1, 1, Conv, [ 128, 3, 2 ] ] # 11-P2/4
  - [ -1, 2, C3k2, [ 256, False, 0.25 ] ]
  - [ -1, 1, Conv, [ 256, 3, 2 ] ] # 13-P3/8
  - [ -1, 2, C3k2, [ 512, False, 0.25 ] ] # 14

  - [-1, 1, ZeroConv2d, [ 512,3, 1, 1]] # 15 (P3/32-)
  - [[-1, 14, 6], 1, CMFM, [512]]  # ADD backbone P3   16


  - [ 16, 1, Conv, [ 512, 3, 2 ] ] # 17-P4/16  infrared
  - [ -1, 2, C3k2, [ 512, True ] ]

  - [ 14, 1, Conv, [ 512, 3, 2 ] ] # 19-P4/16   visible
  - [ -1, 2, C3k2, [ 512, True ] ]  #20

  - [-1, 1, ZeroConv2d, [ 512, 3, 1,1]] # 21 (P4/16-)
  - [[-1, 20, 18], 1, CMFM, [512]]  # ADD backbone P3   22

  - [ 22, 1, Conv, [ 1024, 3, 2 ] ] # 23-P5/32  infrared
  - [ -1, 2, C3k2, [ 1024, True ] ]

  - [ 20, 1, Conv, [ 1024, 3, 2 ] ] # 25-P5/32  visible
  - [ -1, 2, C3k2, [ 1024, True ] ]  #26


  - [-1, 1, ZeroConv2d, [  1024,3, 1,1]] # 27 (P5/32-large)
  - [[-1, 26, 24], 1, CMFM, [1024]]  # ADD backbone P3   28


  - [ -1, 1, SPPF, [ 1024, 5 ] ] # 29
  - [ -1, 2, C2PSA, [ 1024 ] ] # 30


head:
  - [ 16, 1, Conv, [ 256, 1 ] ] # 31 downsample backbone P3
  - [ 22, 1, Conv, [ 512, 1 ] ] # 32 downsample backbone P4


  - [ [ 31, 32 ], 1, RAB_FPN_Add2, [ 256, 0 ] ] # 33
  - [ [ 31, 32 ], 1, RAB_FPN_Add2, [ 512, 1 ] ] # 34


  - [ 33, 2, C3k2, [ 256, False ] ] # 35 (P3/8-small)
  - [ 34, 2, C3k2, [ 512, False ] ] # 36 (P4/16-medium)


  - [ 30, 1, Conv, [ 1024, 1, 1 ] ] # 37 process backbone P5

  - [ [ 35, 36, 37 ], 1, RAB_FPN_Add3, [ 256, 0 ] ] # 38
  - [ [ 35, 36, 37 ], 1, RAB_FPN_Add3, [ 512, 1 ] ] # 39
  - [ [ 35, 36, 37 ], 1, RAB_FPN_Add3, [ 1024, 2 ] ] # 40

  - [ 38, 2, C3k2, [ 256, False ] ] # 41
  - [ 39, 2, C3k2, [ 512, False ] ] # 42
  - [ 40, 2, C3k2, [ 1024, True ] ] # 43

  - [ [ 41, 42, 43 ], 1, Detect, [ nc ] ] # 44 Detect(P3, P4, P5)

